…
&lt;p&gt;&lt;img src=&quot;https://github.com/small-cat/small-cat.github.io/raw/master/_pics/servey_about_compilers/darknet-yolo-run.gif&quot; alt=&quot;&quot; /&gt;&lt;/p&gt;

&lt;p&gt;使用 tvm 编译后，第一种是直接编译，第二种使用了量化优化，在进行的编译&lt;/p&gt;

&lt;div class=&quot;highlighter-rouge&quot;&gt;&lt;div class=&quot;highlight&quot;&gt;&lt;pre class=&quot;highlight&quot;&gt;&lt;code&gt;Loading the test image...
Running the test image...
{'mean': 1044.8609760023828, 'median': 1044.8609760023828, 'std': 0.0}
{'mean': 3992.8165460005403, 'median': 3992.8165460005403, 'std': 0.0}
Funishing inference...
Show Outputs ......
loading yolov3 network...
layer     filters    size              input                output
    0 conv     32  3 x 3 / 1   416 x 416 x   3   -&amp;gt;   416 x 416 x  32  0.299 BFLOPs
    1 conv     64  3 x 3 / 2   416 x 416 x  32   -&amp;gt;   208 x 208 x  64  1.595 BFLOPs
    2 conv     32  1 x 1 / 1   208 x 208 x  64   -&amp;gt;   208 x 208 x  32  0.177 BFLOPs
    3 conv     64  3 x 3 / 1   208 x 208 x  32   -&amp;gt;   208 x 208 x  64  1.595 BFLOPs
    4 res    1                 208 x 208 x  64   -&amp;gt;   208 x 208 x  64
    5 conv    128  3 x 3 / 2   208 x 208 x  64   -&amp;gt;   104 x 104 x 128  1.595 BFLOPs
    6 conv     64  1 x 1 / 1   104 x 104 x 128   -&amp;gt;   104 x 104 x  64  0.177 BFLOPs
    7 conv    128  3 x 3 / 1   104 x 104 x  64   -&amp;gt;   104 x 104 x 128  1.595 BFLOPs
    8 res    5                 104 x 104 x 128   -&amp;gt;   104 x 104 x 128
    9 conv     64  1 x 1 / 1   104 x 104 x 128   -&amp;gt;   104 x 104 x  64  0.177 BFLOPs
   10 conv    128  3 x 3 / 1   104 x 104 x  64   -&amp;gt;   104 x 104 x 128  1.595 BFLOPs
   11 res    8                 104 x 104 x 128   -&amp;gt;   104 x 104 x 128
   12 conv    256  3 x 3 / 2   104 x 104 x 128   -&amp;gt;    52 x  52 x 256  1.595 BFLOPs
   13 conv    128  1 x 1 / 1    52 x  52 x 256   -&amp;gt;    52 x  52 x 128  0.177 BFLOPs
   14 conv    256  3 x 3 / 1    52 x  52 x 128   -&amp;gt;    52 x  52 x 256  1.595 BFLOPs
   15 res   12                  52 x  52 x 256   -&amp;gt;    52 x  52 x 256
   16 conv    128  1 x 1 / 1    52 x  52 x 256   -&amp;gt;    52 x  52 x 128  0.177 BFLOPs
   17 conv    256  3 x 3 / 1    52 x  52 x 128   -&amp;gt;    52 x  52 x 256  1.595 BFLOPs
   18 res   15                  52 x  52 x 256   -&amp;gt;    52 x  52 x 256
   19 conv    128  1 x 1 / 1    52 x  52 x 256   -&amp;gt;    52 x  52 x 128  0.177 BFLOPs
   20 conv    256  3 x 3 / 1    52 x  52 x 128   -&amp;gt;    52 x  52 x 256  1.595 BFLOPs
   21 res   18                  52 x  52 x 256   -&amp;gt;    52 x  52 x 256
   22 conv    128  1 x 1 / 1    52 x  52 x 256   -&amp;gt;    52 x  52 x 128  0.177 BFLOPs
   23 conv    256  3 x 3 / 1    52 x  52 x 128   -&amp;gt;    52 x  52 x 256  1.595 BFLOPs
   24 res   21                  52 x  52 x 256   -&amp;gt;    52 x  52 x 256
   25 conv    128  1 x 1 / 1    52 x  52 x 256   -&amp;gt;    52 x  52 x 128  0.177 BFLOPs
   26 conv    256  3 x 3 / 1    52 x  52 x 128   -&amp;gt;    52 x  52 x 256  1.595 BFLOPs
   27 res   24                  52 x  52 x 256   -&amp;gt;    52 x  52 x 256
   28 conv    128  1 x 1 / 1    52 x  52 x 256   -&amp;gt;    52 x  52 x 128  0.177 BFLOPs
   29 conv    256  3 x 3 / 1    52 x  52 x 128   -&amp;gt;    52 x  52 x 256  1.595 BFLOPs
   30 res   27                  52 x  52 x 256   -&amp;gt;    52 x  52 x 256
   31 conv    128  1 x 1 / 1    52 x  52 x 256   -&amp;gt;    52 x  52 x 128  0.177 BFLOPs
   32 conv    256  3 x 3 / 1    52 x  52 x 128   -&amp;gt;    52 x  52 x 256  1.595 BFLOPs
   33 res   30                  52 x  52 x 256   -&amp;gt;    52 x  52 x 256
   34 conv    128  1 x 1 / 1    52 x  52 x 256   -&amp;gt;    52 x  52 x 128  0.177 BFLOPs
   35 conv    256  3 x 3 / 1    52 x  52 x 128   -&amp;gt;    52 x  52 x 256  1.595 BFLOPs
   36 res   33                  52 x  52 x 256   -&amp;gt;    52 x  52 x 256
   37 conv    512  3 x 3 / 2    52 x  52 x 256   -&amp;gt;    26 x  26 x 512  1.595 BFLOPs
   38 conv    256  1 x 1 / 1    26 x  26 x 512   -&amp;gt;    26 x  26 x 256  0.177 BFLOPs
   39 conv    512  3 x 3 / 1    26 x  26 x 256   -&amp;gt;    26 x  26 x 512  1.595 BFLOPs
   40 res   37                  26 x  26 x 512   -&amp;gt;    26 x  26 x 512
   41 conv    256  1 x 1 / 1    26 x  26 x 512   -&amp;gt;    26 x  26 x 256  0.177 BFLOPs
   42 conv    512  3 x 3 / 1    26 x  26 x 256   -&amp;gt;    26 x  26 x 512  1.595 BFLOPs
   43 res   40                  26 x  26 x 512   -&amp;gt;    26 x  26 x 512
   44 conv    256  1 x 1 / 1    26 x  26 x 512   -&amp;gt;    26 x  26 x 256  0.177 BFLOPs
   45 conv    512  3 x 3 / 1    26 x  26 x 256   -&amp;gt;    26 x  26 x 512  1.595 BFLOPs
   46 res   43                  26 x  26 x 512   -&amp;gt;    26 x  26 x 512
   47 conv    256  1 x 1 / 1    26 x  26 x 512   -&amp;gt;    26 x  26 x 256  0.177 BFLOPs
   48 conv    512  3 x 3 / 1    26 x  26 x 256   -&amp;gt;    26 x  26 x 512  1.595 BFLOPs
   49 res   46                  26 x  26 x 512   -&amp;gt;    26 x  26 x 512
   50 conv    256  1 x 1 / 1    26 x  26 x 512   -&amp;gt;    26 x  26 x 256  0.177 BFLOPs
   51 conv    512  3 x 3 / 1    26 x  26 x 256   -&amp;gt;    26 x  26 x 512  1.595 BFLOPs
   52 res   49                  26 x  26 x 512   -&amp;gt;    26 x  26 x 512
   53 conv    256  1 x 1 / 1    26 x  26 x 512   -&amp;gt;    26 x  26 x 256  0.177 BFLOPs
   54 conv    512  3 x 3 / 1    26 x  26 x 256   -&amp;gt;    26 x  26 x 512  1.595 BFLOPs
   55 res   52                  26 x  26 x 512   -&amp;gt;    26 x  26 x 512
   56 conv    256  1 x 1 / 1    26 x  26 x 512   -&amp;gt;    26 x  26 x 256  0.177 BFLOPs
   57 conv    512  3 x 3 / 1    26 x  26 x 256   -&amp;gt;    26 x  26 x 512  1.595 BFLOPs
   58 res   55                  26 x  26 x 512   -&amp;gt;    26 x  26 x 512
   59 conv    256  1 x 1 / 1    26 x  26 x 512   -&amp;gt;    26 x  26 x 256  0.177 BFLOPs
   60 conv    512  3 x 3 / 1    26 x  26 x 256   -&amp;gt;    26 x  26 x 512  1.595 BFLOPs
   61 res   58                  26 x  26 x 512   -&amp;gt;    26 x  26 x 512
   62 conv   1024  3 x 3 / 2    26 x  26 x 512   -&amp;gt;    13 x  13 x1024  1.595 BFLOPs
   63 conv    512  1 x 1 / 1    13 x  13 x1024   -&amp;gt;    13 x  13 x 512  0.177 BFLOPs
   64 conv   1024  3 x 3 / 1    13 x  13 x 512   -&amp;gt;    13 x  13 x1024  1.595 BFLOPs
   65 res   62                  13 x  13 x1024   -&amp;gt;    13 x  13 x1024
   66 conv    512  1 x 1 / 1    13 x  13 x1024   -&amp;gt;    13 x  13 x 512  0.177 BFLOPs
   67 conv   1024  3 x 3 / 1    13 x  13 x 512   -&amp;gt;    13 x  13 x1024  1.595 BFLOPs
   68 res   65                  13 x  13 x1024   -&amp;gt;    13 x  13 x1024
   69 conv    512  1 x 1 / 1    13 x  13 x1024   -&amp;gt;    13 x  13 x 512  0.177 BFLOPs
   70 conv   1024  3 x 3 / 1    13 x  13 x 512   -&amp;gt;    13 x  13 x1024  1.595 BFLOPs
   71 res   68                  13 x  13 x1024   -&amp;gt;    13 x  13 x1024
   72 conv    512  1 x 1 / 1    13 x  13 x1024   -&amp;gt;    13 x  13 x 512  0.177 BFLOPs
   73 conv   1024  3 x 3 / 1    13 x  13 x 512   -&amp;gt;    13 x  13 x1024  1.595 BFLOPs
   74 res   71                  13 x  13 x1024   -&amp;gt;    13 x  13 x1024
   75 conv    512  1 x 1 / 1    13 x  13 x1024   -&amp;gt;    13 x  13 x 512  0.177 BFLOPs
   76 conv   1024  3 x 3 / 1    13 x  13 x 512   -&amp;gt;    13 x  13 x1024  1.595 BFLOPs
   77 conv    512  1 x 1 / 1    13 x  13 x1024   -&amp;gt;    13 x  13 x 512  0.177 BFLOPs
   78 conv   1024  3 x 3 / 1    13 x  13 x 512   -&amp;gt;    13 x  13 x1024  1.595 BFLOPs
   79 conv    512  1 x 1 / 1    13 x  13 x1024   -&amp;gt;    13 x  13 x 512  0.177 BFLOPs
   80 conv   1024  3 x 3 / 1    13 x  13 x 512   -&amp;gt;    13 x  13 x1024  1.595 BFLOPs
   81 conv    255  1 x 1 / 1    13 x  13 x1024   -&amp;gt;    13 x  13 x 255  0.088 BFLOPs
   82 detection
   83 route  79
   84 conv    256  1 x 1 / 1    13 x  13 x 512   -&amp;gt;    13 x  13 x 256  0.044 BFLOPs
   85 upsample            2x    13 x  13 x 256   -&amp;gt;    26 x  26 x 256
   86 route  85 61
   87 conv    256  1 x 1 / 1    26 x  26 x 768   -&amp;gt;    26 x  26 x 256  0.266 BFLOPs
   88 conv    512  3 x 3 / 1    26 x  26 x 256   -&amp;gt;    26 x  26 x 512  1.595 BFLOPs
   89 conv    256  1 x 1 / 1    26 x  26 x 512   -&amp;gt;    26 x  26 x 256  0.177 BFLOPs
   90 conv    512  3 x 3 / 1    26 x  26 x 256   -&amp;gt;    26 x  26 x 512  1.595 BFLOPs
   91 conv    256  1 x 1 / 1    26 x  26 x 512   -&amp;gt;    26 x  26 x 256  0.177 BFLOPs
   92 conv    512  3 x 3 / 1    26 x  26 x 256   -&amp;gt;    26 x  26 x 512  1.595 BFLOPs
   93 conv    255  1 x 1 / 1    26 x  26 x 512   -&amp;gt;    26 x  26 x 255  0.177 BFLOPs
   94 detection
   95 route  91
   96 conv    128  1 x 1 / 1    26 x  26 x 256   -&amp;gt;    26 x  26 x 128  0.044 BFLOPs
   97 upsample            2x    26 x  26 x 128   -&amp;gt;    52 x  52 x 128
   98 route  97 36
   99 conv    128  1 x 1 / 1    52 x  52 x 384   -&amp;gt;    52 x  52 x 128  0.266 BFLOPs
  100 conv    256  3 x 3 / 1    52 x  52 x 128   -&amp;gt;    52 x  52 x 256  1.595 BFLOPs
  101 conv    128  1 x 1 / 1    52 x  52 x 256   -&amp;gt;    52 x  52 x 128  0.177 BFLOPs
  102 conv    256  3 x 3 / 1    52 x  52 x 128   -&amp;gt;    52 x  52 x 256  1.595 BFLOPs
  103 conv    128  1 x 1 / 1    52 x  52 x 256   -&amp;gt;    52 x  52 x 128  0.177 BFLOPs
  104 conv    256  3 x 3 / 1    52 x  52 x 128   -&amp;gt;    52 x  52 x 256  1.595 BFLOPs
  105 conv    255  1 x 1 / 1    52 x  52 x 256   -&amp;gt;    52 x  52 x 255  0.353 BFLOPs
  106 detection
Loading weights from /home/jona/Documents/programming/happy_coding/pycharm_workspace/tvm_study/yolov3/yolov3.weights...Done!
class:['bus 0.9842'] left:0 right:196 top:809 bottom:762
class:['person 0.999'] left:45 right:380 top:219 bottom:910
class:['person 0.9947'] left:691 right:406 top:805 bottom:892
class:['person 0.9915'] left:216 right:400 top:357 bottom:868
…
